stanford-cs234/assignments/ass2_2023/results/q4_linear/model.weights.pt (torch, 1535 bytes, 2 tensors)

weight f4 [5, 25]
000000 46 f5 6f 3f e8 21 87 be 50 1d 00 bf d7 2b 2c bd
       0.9373363 -0.26393056 -0.5004473 -0.042033996
000010 a7 51 d3 bc 35 ff 66 bf c9 2b 8c 3d 0e 46 8f bf
       -0.02579577 -0.90233165 0.06844289 -1.1193254
000020 a1 96 0d 3f 7a 57 08 3f f2 8d 23 3f 89 de 4e bf
       0.55307966 0.5325848 0.63888466 -0.8080831
000030 49 30 49 bf ac 72 3c 3e 4c 3f b9 be 12 cd a9 3e
       -0.785893 0.18403119 -0.36181104 0.3316427
000040 74 fe 66 3e 20 72 dc 3f 8d 3a 18 bf 4d 81 6d be
       0.22558004 1.7222328 -0.5946434 -0.23193856
000050 03 e8 3a 3f 96 62 50 3e 57 11 32 bf 8a 88 b4 3e
       0.7301027 0.20350108 -0.6955771 0.3526042
000060 c4 a0 6e 3e 3c bf 43 c0 cf 52 13 40 34 a5 d2 bf
       0.23303515 -3.058547 2.3019292 -1.6456666
000070 59 09 65 3f 7f 9e 0f bf 70 4b 4e 3f bd cc 31 3f
       0.8946739 -0.5610122 0.8058386 0.6945303
000080 e5 17 9a 3f c1 87 93 bf 11 6b 0c 3f 5b 8c 4c bf
       1.2038542 -1.1525804 0.5485087 -0.79901665
000090 5b 09 61 40 2c b9 97 bf 39 ff 13 bf 2b 2a d9 3f
       3.516196 -1.1853385 -0.57811314 1.6965994
0000a0 fa f1 c3 bf 9e 77 a7 3f 65 b4 2b c0 e6 00 1d 3f
       -1.530822 1.3083379 -2.6828854 0.61329496
0000b0 3c f2 ae 3e 47 54 96 bf 86 b1 17 3f bc fe 68 3f
       0.34169185 -1.174447 0.59255254 0.91013694
0000c0 b9 c3 f3 bc d8 28 39 3e ad 2c 11 bf 78 a1 e1 3e
       -0.029756414 0.18081987 -0.56708795 0.44068503
0000d0 23 de a5 be 50 ea 35 bf a4 40 2a 3f 59 28 3c bf
       -0.3239604 -0.7106066 0.66504884 -0.73499066
0000e0 c2 b6 ab 3e 63 05 17 be 39 22 8e bf a2 11 f3 bd
       0.3353787 -0.14748149 -1.1104194 -0.118685976
0000f0 87 65 8b bf d1 fe e7 3d 26 bd b9 bf 0e c6 1f 3f
       -1.0890359 0.11327899 -1.4510849 0.6241158
000100 4d 29 83 3f c2 e0 f6 be e5 e2 70 be 30 a9 be 3e
       1.0246979 -0.48218352 -0.23524053 0.37238455
000110 2b 1f 2c bf 0a e7 98 3e 0d 95 5d be a4 a5 a2 bd
       -0.6723506 0.2986377 -0.2163889 -0.0794175
000120 81 f7 43 3f de eb 44 3f fa 9e 2a bd cd 8b c3 bf
       0.76549536 0.76922405 -0.041655518 -1.5277039
000130 9b f4 de 3f b4 74 50 bf 67 29 c7 be 65 95 72 bd
       1.7418398 -0.81428075 -0.38898775 -0.059224505
000140 3e 85 1f 3f d7 7d 49 be 38 ec 1e 3f c2 0e 79 bf
       0.62312686 -0.1967691 0.6207919 -0.97288144
000150 49 d5 18 3f 24 d9 54 bf 67 e4 0e 40 a8 b8 ec be
       0.5970045 -0.8314383 2.2326906 -0.46234632
000160 11 55 07 3e 3a 13 41 3f b1 ee b4 bf be 72 81 3f
       0.13216044 0.7541996 -1.4135343 1.0113142
000170 a0 1c 37 bf 7c f7 09 3f 46 4e a4 3d 97 92 67 bf
       -0.71528053 0.53893256 0.08022742 -0.90458053
000180 41 38 3c 3f fc f5 7f 3f 28 b2 84 bd 50 f5 03 be
       0.73523337 0.9998472 -0.06479293 -0.12886548
000190 0a 1a 68 bf 01 7d 1a 3f 2a b6 83 bf 2a 7d 5e bd
       -0.9066473 0.6034699 -1.0289967 -0.054318585
0001a0 b4 a7 d1 bd 40 af 92 bd ad 75 3e 3e a4 83 df 3e
       -0.10237065 -0.071623325 0.18599577 0.4365512
0001b0 5b d9 e3 bd f5 f3 5d be 40 5b 98 bf 8e b4 30 3f
       -0.11125442 -0.21675093 -1.1902847 0.69025505
0001c0 0b 82 6a bf 6d 40 79 3f 4b 37 9b 3f ec bc 15 bf
       -0.9160468 0.9736393 1.2126249 -0.58491397
0001d0 fc f4 9b be b8 57 ef be 54 a3 64 be 28 d4 43 bf
       -0.30460346 -0.46746612 -0.2232793 -0.764956
0001e0 b1 a6 7e bf 43 cd 9e bd 2d 38 7a 3f e4 d7 30 3f
       -0.994731 -0.07753994 0.9774197 0.6907942
0001f0 cf 7a 62 be
       -0.2211716

bias f4 [5]
000000 0b 8a a5 40 c9 2a 53 40 d8 76 a7 40 b7 f2 5a 40
       5.173101 3.2994864 5.2332573 3.4210641
000010 2b 07 96 40
       4.688375
